…
Number of global features:  260
min y: 0.0, max y: 24.44008533063267
Features not saved before.
Extracting features took:  169.41006207466125
Features not saved before.
Extracting features took:  73.79082131385803
Features not saved before.
Extracting features took:  7.79387903213501
Features not saved before.
Extracting features took:  6.84794282913208
Features not saved before.
Extracting features took:  46.52776098251343
SetConvFlow(
  (inp_drop_layer): Dropout(p=0.0, inplace=False)
  (hl_drop_layer): Dropout(p=0.0, inplace=False)
  (combined_drop_layer): Dropout(p=0.0, inplace=False)
  (sample_mlp1): Linear(in_features=15, out_features=128, bias=True)
  (sample_mlp2): Linear(in_features=128, out_features=128, bias=True)
  (predicate_mlp1): Linear(in_features=31, out_features=128, bias=True)
  (predicate_mlp2): Linear(in_features=128, out_features=128, bias=True)
  (join_mlp1): Linear(in_features=27, out_features=128, bias=True)
  (join_mlp2): Linear(in_features=128, out_features=128, bias=True)
  (flow_mlp1): Linear(in_features=260, out_features=128, bias=True)
  (flow_mlp2): Linear(in_features=128, out_features=128, bias=True)
  (out_mlp1): Linear(in_features=512, out_features=128, bias=True)
  (out_mlp2): Linear(in_features=128, out_features=1, bias=True)
)
Training samples: 1501, Model size: 0.699908
Traceback (most recent call last):
  File "/Users/erostrate9/Desktop/CSI5137F Data Management/project/project2/Robust-MSCN/main.py", line 284, in <module>
    main()
  File "/Users/erostrate9/Desktop/CSI5137F Data Management/project/project2/Robust-MSCN/main.py", line 226, in main
    alg.train(trainqs, valqs=valqs, testqs=testqs, evalqs = evalqs,
…
